…
ywidgets==7.7.1 found, needs ipywidgets>=8\nRun `pip install -U ipywidgets`, then restart the notebook server for rich notebook output.\n2024-10-26 10:28:36,275\tINFO util.py:124 -- Outdated packages:\n  ipywidgets==7.7.1 found, needs ipywidgets>=8\nRun `pip install -U ipywidgets`, then restart the notebook server for rich notebook output.\n","output_type":"stream"},{"name":"stdout","text":"Overriding model.yaml nc=80 with nc=4\n\n                   from  n    params  module                                       arguments                     \n  0                  -1  1      1856  ultralytics.nn.modules.conv.Conv             [3, 64, 3, 2]                 \n  1                  -1  1     73984  ultralytics.nn.modules.conv.Conv             [64, 128, 3, 2]               \n  2                  -1  3    279808  ultralytics.nn.modules.block.C2f             [128, 128, 3, True]           \n  3                  -1  1    295424  ultralytics.nn.modules.conv.Conv             [128, 256, 3, 2]              \n  4                  -1  6   2101248  ultralytics.nn.modules.block.C2f             [256, 256, 6, True]           \n  5                  -1  1    137728  ultralytics.nn.modules.block.SCDown          [256, 512, 3, 2]              \n  6                  -1  6   8396800  ultralytics.nn.modules.block.C2f             [512, 512, 6, True]           \n  7                  -1  1    268800  ultralytics.nn.modules.block.SCDown          [512, 512, 3, 2]              \n  8                  -1  3   1744384  ultralytics.nn.modules.block.C2fCIB          [512, 512, 3, True]           \n  9                  -1  1    656896  ultralytics.nn.modules.block.SPPF            [512, 512, 5]                 \n 10                  -1  1    990976  ultralytics.nn.modules.block.PSA             [512, 512]                    \n 11                  -1  1         0  torch.nn.modules.upsampling.Upsample         [None, 2, 'nearest']          \n 12             [-1, 6]  1         0  ultralytics.nn.modules.conv.Concat           [1]                           \n 13                  -1  3   2006528  ultralytics.nn.modules.block.C2fCIB          [1024, 512, 3, True]          \n 14                  -1  1         0  torch.nn.modules.upsampling.Upsample         [None, 2, 'nearest']          \n 15             [-1, 4]  1         0  ultralytics.nn.modules.conv.Concat           [1]                           \n 16                  -1  3   1247744  ultralytics.nn.modules.block.C2f             [768, 256, 3]                 \n 17                  -1  1    590336  ultralytics.nn.modules.conv.Conv             [256, 256, 3, 2]              \n 18            [-1, 13]  1         0  ultralytics.nn.modules.conv.Concat           [1]                           \n 19                  -1  3   1875456  ultralytics.nn.modules.block.C2fCIB          [768, 512, 3, True]           \n 20                  -1  1    268800  ultralytics.nn.modules.block.SCDown          [512, 512, 3, 2]              \n 21            [-1, 10]  1         0  ultralytics.nn.modules.conv.Concat           [1]                           \n 22                  -1  3   2006528  ultralytics.nn.modules.block.C2fCIB          [1024, 512, 3, True]          \n 23        [16, 19, 22]  1   2828200  ultralytics.nn.modules.head.v10Detect        [4, [256, 512, 512]]          \nYOLOv10l summary: 628 layers, 25,771,496 parameters, 25,771,480 gradients, 127.2 GFLOPs\n\nTransferred 1015/1027 items from pretrained weights\n\u001b[34m\u001b[1mTensorBoard: \u001b[0mStart with 'tensorboard --logdir runs/detect/train', view at http://localhost:6006/\nFreezing layer 'model.23.dfl.conv.weight'\n\u001b[34m\u001b[1mAMP: \u001b[0mrunning Automatic Mixed
…
